FingerController/test9_6_new.pth (torch, 272779 bytes, 9 tensors)

conv.weight f4 [64, 30, 3, 3]
000000 cd a5 ac 3d fe d0 36 bc 9a 1b 05 bd 11 ef ac bb
       0.084300615 -0.011158226 -0.032497026 -0.0052775224
000010 21 36 30 bb 6d 4f 15 bd be 2d d3 bd c5 74 33 bd
       -0.0026887732 -0.0364527 -0.10311459 -0.043812532
000020 ae 06 19 bd d4 07 c9 3d 0e 0d 10 3c 3c 41 9c 3c
       -0.037359886 0.09815946 0.008792175 0.019074075
000030 0e 1f 81 3d 5a b1 06 3d c6 e8 68 bd be 56 9d bd
       0.06304751 0.03288398 -0.056862615 -0.076825604
000040 77 59 57 bd e1 c7 ce bc 5a b6 9a 3d 53 93 ef bc
       -0.052575555 -0.025241794 0.07554312 -0.029245054
000050 cf 05 a1 bc 3c c5 8f bc 60 2d 04 3d 00 96 58 bc
       -0.01965609 -0.017550103 0.032269835 -0.013219357
000060 86 82 56 3c 70 99 0c 3c 80 92 67 bd ae 74 bb 3d
       0.013092643 0.008581504 -0.056536198 0.09153114
000070 19 34 9a bc 34 82 72 bd b1 39 80 3d c0 da 35 bd
       -0.01882367 -0.059206203 0.06261004 -0.04439807
000080 86 df ab ba dc f5 c4 bd fd de 17 3c e7 10 f4 3c
       -0.001311288 -0.096172065 0.009269473 0.029793216
000090 ea 4c 33 3d c2 53 88 3d 50 6b 8b bd 05 e4 83 bc
       0.043774523 0.066566005 -0.068075776 -0.01609994
0000a0 7a 8c 36 bd f7 8a 38 3d 28 af aa bd b9 86 0d bc
       -0.044567563 0.045054402 -0.0833419 -0.008638077
0000b0 ae 67 61 bd 2f 39 6a 3c b8 b5 23 3c 48 7b 11 3d
       -0.055030517 0.01429586 0.009992056 0.03551796
0000c0 30 8a 12 3d b3 47 3b 3d 54 f1 71 bd 98 26 bc bd
       0.035776317 0.045722675 -0.05906804 -0.09187049
0000d0 9a 2b cf 3c 30 2f 63 3d 10 cc 39 3d bb 6c 2b bd
       0.025289346 0.055464923 0.045360625 -0.04185174
0000e0 77 55 38 3d e1 cc 2d ba 29 23 66 3d 19 cc 03 bd
       0.04500338 -0.00066299556 0.056185875 -0.032177065
0000f0 8c 31 6b bc bc ce 33 3d 3a dc 45 bd 6c 60 36 bb
       -0.014355075 0.04389833 -0.048305728 -0.0027828468
000100 69 72 82 3d 1c 81 1c bc 7d b4 7e bc e5 45 ae bb
       0.06369478 -0.009552266 -0.015545961 -0.0053183907
000110 7c 4f 0c 3d be 26 38 bd e6 56 8e bd 5c c4 45 3d
       0.03425549 -0.044958822 -0.06950168 0.048282966
000120 a8 27 bf 3d b1 53 c2 bc 86 ad 6d 3c 34 b1 84 3d
       0.09333736 -0.023721548 0.014506703 0.06479111
000130 f0 82 c9 3c 36 2b f3 bb 10 16 f5 bb d8 8a be 3c
       0.024598569 -0.0074209226 -0.0074794367 0.023259565
000140 93 10 4d bd 1e 58 4c bb 6c 01 f2 bc 7e a3 23 bd
       -0.050064635 -0.0031180452 -0.029541694 -0.03995084
000150 dc d2 18 3d 66 ab e6 bc a3 f5 69 3c 24 13 91 bc
       0.037310466 -0.028157901 0.014279756 -0.017709322
000160 22 f6 41 bd f3 f8 68 3a ed f0 6e 3d b4 81 61 3b
       -0.04735387 0.0008887194 0.058335233 0.0034409584
000170 d2 b7 b1 bc 85 81 60 3d ac fe 66 bc af d7 31 bd
       -0.021694098 0.05481102 -0.014098804 -0.043418583
000180 6a 50 4c 3c 09 25 00 3d 90 ca 0b 3d 5a 57 99 3d
       0.012470344 0.03128532 0.034128726 0.07487364
000190 c1 bb 3f bd d9 04 6e 3c 67 4b b8 3c 24 55 6d 38
       -0.046809915 0.014527523 0.022496892 5.6584497e-05
0001a0 20 a2 48 3d 95 d7 23 bd 0b 6e 0d bc 46 9b fa bc
       0.04898274 -0.040000517 -0.008632193 -0.030591618
0001b0 49 97 55 bc 85 6b 80 bc e8 11 a4 3b 0c 50 96 bc
       -0.0130365575 -0.01567627 0.0050070174 -0.018348716
0001c0 b4 7e 0d 3d db 60 ef 3b ae 16 32 bd 57 e5 76 bc
       0.03454466 0.0073052472 -0.04347866 -0.015069327
0001d0 04 02 77 bc 30 00 bf 3b b2 63 e0 3c cb c9 60 bd
       -0.015076164 0.00582888 0.027391288 -0.054879945
0001e0 13 f7 b0 3c ca 46 51 bd 83 d1 44 3d 64 07 a9 bd
       0.02160219 -0.0510929 0.04805137 -0.08253363
0001f0 7c ae 20 bd db 75 6c bc 8c d2 74 3d 00 9c 2c 3b
       -0.0392289 -0.014432396 0.059771106 0.00263381
000200 14 0e 1d bc c5 c0 10 bb f9 ae 52 3c b1 1e e0 3c
       -0.009585876 -0.0022087556 0.0128591 0.027358385
000210 71 5e 0a bc 0b 2b 37 bc f0 60 8c bc 0a da 54 3c
       -0.008445368 -0.011179696 -0.017136067 0.012991438
000220 d5 64 1a bd 28 1e 4e 3d cb a2 e1 3b bb 91 7c bc
       -0.037693817 0.050321728 0.0068858615 -0.015415604
000230 d5 43 46 bd b3 5f 70 bd 58 5e c8 3c 86 33 bb ba
       -0.048404533 -0.058685016 0.02445905 -0.0014282323
000240 ef d4 af 3d 4b 8e cc 3c 45 27 b0 3c 38 95 26 3d
       0.08585536 0.024970194 0.0215031 0.04066965
000250 5e e5 0d 3d 78 02 1a bd d4 6a 86 bc 1e 79 0b 3c
       0.03464257 -0.03760001 -0.016408361 0.008512763
000260 39 7d d4 bc 0e 4d c6 bb 1f 36 dd bb 3f 62 4d 3d
       -0.025938617 -0.006051666 -0.0067508365 0.050142523
000270 d1 5c 15 bd 4a 2b ef bc b5 21 8a bc 40 71 07 bc
       -0.03646547 -0.029195447 -0.016861776 -0.008266747
000280 03 cf 3e bb 95 ad 74 3c ac b9 c1 3c 12 9b 25 bd
       -0.0029115088 0.014933963 0.023648106 -0.04043109
000290 39 e7 0e 3d 8b 50 d8 3a 70 d7 76 3d e9 3a 2a 3d
       0.03488848 0.0016503496 0.06026405 0.041560087
0002a0 6c 12 3d bd e6 bc 2c 3d da aa 2c 3d 96 4f a2 3d
       -0.046160147 0.042172335 0.042155124 0.07925336
0002b0 0d bc 05 3d b3 f3 33 bd bb cd fa 3c 2e 07 3d 3d
       0.032650042 -0.04393358 0.030615678 0.046149425
0002c0 99 0d 82 3d 49 9a 23 bd ce a9 f3 3c 63 0d 50 3d
       0.0635025 -0.03994206 0.029744055 0.050794017
0002d0 33 69 14 bd da af 21 3d 7d df 46 3d 5b 6d 31 bd
       -0.03623314 0.039474346 0.04855298 -0.04331718
0002e0 2a 60 b1 3c de 39 7b 3d d3 0d 96 bd e4 04 c3 3c
       0.0216523 0.061334483 -0.073268555 0.023806043
0002f0 a8 ee 5f 3d 95 10 94 3d 41 8d 01 3d 27 d7 b4 bc
       0.05467096 0.07229725 0.03162885 -0.022075249
000300 d7 7a 97 bd ba 39 14 3c 0f 21 a7 bc 56 06 60 bd
       -0.07396477 0.009046966 -0.020401506 -0.054693542
000310 b8 33 80 3a dc 4b 23 bd e5 d2 6f 3c 05 ad 50 3d
       0.0009781038 -0.039867267 0.0146376835 0.050946254
000320 75 bb 30 bd a0 e4 81 bd 71 7d 14 bc 99 fe ae 3c
       -0.043147523 -0.06342435 -0.009063111 0.021361636
000330 1f 8c 6b bd 5a 30 26 bb 55 e4 5b 3d 1c 40 09 3d
       -0.057506677 -0.002535841 0.05368455 0.033508405
000340 0d 75 e0 bb ce 11 04 3d 54 93 62 3c da dc 6a 3d
       -0.006849891 0.032243542 0.013829071 0.057339527
000350 a8 27 5e 3d e0 28 a5 bd ca 8b 85 bd 07 4a b7 bc
       0.054237038 -0.08064437 -0.06520803 -0.022374166
000360 04 26 7e 3d 35 db 87 bc a9 62 78 bd c3 3f a5 3c
       0.062047973 -0.016584018 -0.060640965 0.020172006
000370 4a c9 b1 3c 4b 84 05 3d 77 b7 1d bd e2 14 5c 3c
       0.021702427 0.032596868 -0.038505044 0.013432713
000380 e7 7c 39 bc e6 fe a6 bc a1 20 71 bc 54 0a 0c bd
       -0.011321283 -0.020385217 -0.014717252 -0.034189537
000390 3f 74 f1 3c 8b 45 21 3d 6e e0 d7 bb 75 35 a1 3b
       0.029474376 0.039372962 -0.0065880334 0.0049197027
0003a0 9b 21 da 3c bb 02 59 3d d6 2e 45 bb 90 cf 53 3d
       0.026627352 0.05298112 -0.003008773 0.05171162
0003b0 a5 e1 67 3c f4 66 1f bd 7c 5d 1f bd 88 5f 20 bb
       0.014152919 -0.038916543 -0.038907513 -0.0024471004
0003c0 57 36 f2 3b 7c 18 7c bd 7e 45 82 bc df 3a a4 3d
       0.0073917317 -0.061546788 -0.015902277 0.08019041
0003d0 b3 73 75 3d db 90 90 bd d0 43 83 3c fa 90 3c 3d
       0.059924792 -0.07058879 0.016023546 0.046036698
0003e0 12 b8 f3 3b d8 58 95 bd d9 db 4a bd 61 50 8c 3c
       0.0074377144 -0.07292336 -0.04952607 0.017128171
0003f0 f3 17 a8 3b a5 b7 76 3d c6 35 8e bd 84 e3 86 bd
       0.005129808 0.06023373 -0.0694385 -0.06586364

conv.bias f4 [64]
000000 68 4c 11 3d 17 ee 42 3d ad f1 88 3a 0f 2b 5a 3d
       0.035473257 0.04759034 0.0010448002 0.05326372
000010 c9 0b ee 3d 81 92 2d bd 84 8c 2a 3d c2 79 67 3d
       0.116233416 -0.042376045 0.041637912 0.0565126
000020 45 cf 05 3d d3 a9 57 3d 05 d7 0a bd 75 f1 07 bd
       0.03266837 0.05265219 -0.033896465 -0.033189256
000030 e0 89 78 bb 5d 43 0c 3d e7 76 09 bd a0 8e 84 bd
       -0.0037923977 0.03424393 -0.03356066 -0.06472516
000040 20 ab 16 3d d5 09 d9 bc 1d 43 90 bd 7a 0a cd ba
       0.03678429 -0.026493946 -0.07044051 -0.0015643381
000050 ea 9f 85 3d 44 37 69 bd aa 36 06 3d 8f 9e 5e 3d
       0.06524642 -0.05693747 0.032766975 0.054350432
000060 1e c2 80 3d d8 9c 6a ba d9 e7 ab 3c ad 3a 13 3c
       0.06287025 -0.0008949763 0.020984577 0.008986157
000070 84 91 d5 3a 2c a0 bf 3b 92 86 db 3c 1d 1f 17 3d
       0.0016293977 0.0058479514 0.026797567 0.036894906
000080 dd 6f b3 3c 31 b3 0b 3d ee db 20 bb e5 e2 ac bc
       0.021903927 0.034106437 -0.002454515 -0.021104285
000090 dc a1 03 3d fd 02 c8 bb 12 dc 3f bd e5 e6 04 bd
       0.032136783 -0.006103872 -0.046840735 -0.03244676
0000a0 26 cb 55 3d 35 51 8b 3d 93 a9 33 3d 15 b5 df 3b
       0.05219569 0.068025984 0.04386289 0.0068270066
0000b0 03 a8 66 3d 33 39 14 bd 63 13 ce 3d 02 5d 73 3d
       0.056312572 -0.036187362 0.100622915 0.05941487
0000c0 1b e8 71 3d 8c 92 4b 3c 18 8d 9f 3d 93 1a 32 3d
       0.059059244 0.012425076 0.07790583 0.043482374
0000d0 96 db 8f bc c5 bc 5d bc 0a f5 9f 3d 9c e8 a0 3d
       -0.017560761 -0.013533776 0.07810409 0.07856867
0000e0 47 b6 8b 3d f1 3e ac 3d 73 ee 86 3d 49 35 5a 3d
       0.06821876 0.084104426 0.06588449 0.053273473
0000f0 9b 95 01 3e 9e 40 32 3d b6 16 42 3e 93 35 c0 3e
       0.12654726 0.043518655 0.18953976 0.37540874

lstm.weight_ih_l0 f4 [256, 121]
000000 f4 c4 1c 3c 0e 12 f1 3c 05 a1 25 be 93 dd ac bd
       0.009568442 0.029427554 -0.16174705 -0.084406994
000010 90 39 95 bd f8 44 52 3d 0b 3a 0b be 68 84 8c bd
       -0.0728637 0.051335305 -0.1359636 -0.06861192
000020 3c bc 93 3d 27 4c 29 bd 3c 47 8c 3d e9 fb 98 3e
       0.07213637 -0.04133239 0.068495244 0.29879692
000030 79 22 cd bd cb 39 b2 3b 35 57 16 3e f1 06 7f 3d
       -0.10016341 0.0054390184 0.14681704 0.06226248
000040 aa 63 be bd 20 13 c0 bd 78 a6 74 3d 80 98 58 3d
       -0.09296353 -0.09378648 0.05972907 0.05287981
000050 34 86 be bd a9 aa 21 bd c5 95 1c 3d d0 ac 54 3d
       -0.09302941 -0.039469395 0.03822877 0.05192262
000060 33 54 81 bd c9 7d 76 bd 06 59 5f 3c 28 70 be bd
       -0.06314888 -0.06017855 0.013632065 -0.09298736
000070 dc 23 93 bd c9 78 e2 bb 6b e3 2d 3e 59 01 a9 bc
       -0.07184574 -0.0069113714 0.16981284 -0.020630525
000080 81 29 7b bc 9e 9c 5f bd df 45 76 3e e8 7b 06 3d
       -0.0153297195 -0.05459272 0.24050091 0.03283301
000090 5b a0 80 3b 1a 62 fe 3d 14 25 5e bd 54 7b 49 3b
       0.003925366 0.12421055 -0.05423458 0.0030743675
0000a0 9b 92 ae 3d f9 9d cc 3c 8d e1 34 3e d1 ba 06 be
       0.085240565 0.024977671 0.17664166 -0.13157202
0000b0 fc e5 05 3e 22 b4 17 bc b1 2d 48 3b 34 f2 d6 bd
       0.13076013 -0.009259256 0.0030544812 -0.10495415
0000c0 cb 5b 12 3e 2e f7 04 3c fd 5d e9 3c ec 69 70 3d
       0.14292829 0.008115573 0.0284872 0.058694765
0000d0 b0 49 fe 3d e3 41 ca bc 91 6a 4a bd f7 ff 83 3d
       0.124163985 -0.02468962 -0.049418036 0.06445306
0000e0 16 6e 84 3d 3c 77 23 bb 9d 41 1a 3e 00 86 90 3d
       0.0646631 -0.0024942895 0.15064092 0.070568085
0000f0 d8 99 9e bc a6 b6 94 bd 6e 90 74 3d e8 08 25 bd
       -0.019360468 -0.072614 0.05970805 -0.040291697
000100 26 1f c4 bd d7 d1 68 3d dc ec ba bd c5 70 5d 3d
       -0.095762536 0.056840744 -0.091272086 0.054062624
000110 6f a2 72 bd 5e 70 e8 3d 8e bf e6 bd 9d 5a 31 bc
       -0.05923694 0.11349557 -0.11267005 -0.010824827
000120 5d 39 f4 3c 18 5d c7 3d 54 db 79 3e b4 0b 0c be
       0.02981251 0.09734553 0.24400073 -0.1367634
000130 a8 ad a6 bd ae ba 66 3d 34 5b 8f 3e a7 62 9e 3e
       -0.08138591 0.056330375 0.2799927 0.3093464
000140 55 da 07 bd 40 a3 27 3d 5a 29 2d 3e 65 ea 1f 3e
       -0.033167202 0.04092717 0.16910306 0.15616758
000150 5e ee 04 3e d5 30 6a 3d 32 7c bd 3d cb 17 bf bd
       0.12981555 0.057175476 0.09252204 -0.0933071
000160 c1 d0 f0 3c 0d f4 19 3c c8 42 96 3d 51 43 d8 bd
       0.029396417 0.009396565 0.07336956 -0.105597146
000170 01 08 02 3e 3c 75 30 3d cd d3 8e 3d 87 15 a0 3d
       0.12698366 0.043080553 0.069739915 0.07816606
000180 79 2a d3 bc 20 b9 34 3c 9d 73 21 be 8c 7f d2 bd
       -0.025777088 0.011030465 -0.15766759 -0.10278234
000190 c9 c8 20 bd 07 e9 b1 bc e7 bb 49 3d 32 67 b5 3c
       -0.039253984 -0.021717561 0.049251463 0.022143934
0001a0 c9 6f 9a bd d3 8c c1 3c 2b f0 c9 3d f0 1e 27 3d
       -0.075408526 0.02362672 0.098602615 0.04080099
0001b0 56 b9 27 bc cc ad d5 bd 74 3e 9e bd b0 31 64 3d
       -0.010237059 -0.1043354 -0.07726756 0.05571145
0001c0 a8 44 02 be 95 0b ae 3d f6 90 23 bd e0 cc 29 bd
       -0.12721503 0.08498303 -0.039933167 -0.04145515
0001d0 85 6d 8a bb cd f1 c5 bd 2a 4f 88 3d d4 9a 1a 3e
       -0.0042244815 -0.096652605 0.06655724 0.15098125
0001e0 f8 f2 c2 bd f5 62 0d 3e 3b 26 0b 3e c7 3b 33 3c
       -0.09518999 0.1380728 0.13588803 0.010939545
0001f0 c7 42 06 3d b4 d3 8e 3d 68 04 8b bd 8a d8 84 3b
       0.032778528 0.06973973 -0.0678795 0.004054134
000200 f4 48 98 bd 55 1b 94 3d 00 73 43 3d bd ff d7 bd
       -0.0743579 0.07231776 0.047717094 -0.10546825
000210 42 94 ed 3d 5d 96 d2 3d 46 cf 8b bd fc d4 ea 3d
       0.116005436 0.10282586 -0.06826644 0.11466405
000220 e2 63 00 be 86 89 bb bd 33 ea b3 bd 8d c9 38 bd
       -0.12538102 -0.0915709 -0.08784904 -0.04511409
000230 07 6f ea bd 7d a7 ec bc 55 95 4b 3c 50 3e 87 bd
       -0.11446958 -0.028888458 0.01242574 -0.06603682
000240 07 c6 81 3c 51 fb fd 3d 56 07 8b 3c 5c 39 29 bd
       0.015841497 0.124014504 0.016971271 -0.041314468
000250 9c 55 80 3d c8 50 82 bd 0a 73 04 3d 98 cd 06 bd
       0.06266329 -0.06363064 0.032336272 -0.032910913
000260 13 b6 0d be e4 6a a6 3d ab c4 e2 3d 41 a9 85 bd
       -0.13838987 0.081258565 0.11072668 -0.06526423
000270 23 08 f1 bc cb 62 c1 3d 47 99 7a bd e6 90 d9 bd
       -0.029422825 0.094426714 -0.061181333 -0.1062334
000280 c1 46 14 3d c9 49 b6 bd bd 80 91 3d b4 bc 99 bd
       0.03620029 -0.08900792 0.07104633 -0.075066954
000290 d8 c3 4b 3a d2 95 af 3d 38 7a 10 bd 20 5a fa 3d
       0.00077730184 0.08573498 -0.035272807 0.12224221
0002a0 8d 33 77 bb 13 6a 46 bb db f0 2f 3c 02 95 a8 bd
       -0.0037719936 -0.0030275628 0.010738577 -0.08231546
0002b0 79 4a ad bd 6f 27 03 3e 37 8c 92 bd 79 b3 af 3c
       -0.0846147 0.12808011 -0.0715565 0.021447884
0002c0 53 49 90 3c 58 fe b5 3d 58 f1 68 3d d4 23 8d 3c
       0.017613089 0.08886403 0.05687079 0.017228998
0002d0 9d ca d4 3b e4 ef 9c bd cc d5 87 bd 25 c1 10 3e
       0.00649388 -0.07662943 -0.066325754 0.14136179
0002e0 06 f4 59 bd 5a 5b 04 3d ee 91 26 bd 76 e8 c2 3d
       -0.053211235 0.032313682 -0.040666513 0.09516995
0002f0 b0 9b 70 3c e6 98 2f 3c ba b0 2a bd ea 63 aa bb
       0.014685556 0.010717606 -0.041672446 -0.005199899
000300 15 ae da 3d e2 48 6f 3d eb 44 53 bd fb ee 16 3d
       0.10677735 0.058419116 -0.051579397 0.036849003
000310 5f c4 17 bc 1e bd 39 3d 0c 4f 94 bc 4a 5f ec 3c
       -0.009263127 0.04534637 -0.018104099 0.028854031
000320 34 91 b2 bd d4 74 f0 bd 98 ac e3 bd ff b7 60 3d
       -0.087191015 -0.11741033 -0.11116904 0.054862972
000330 cf b4 b1 bc 7a a2 b2 bd 77 8a df 3c 6d eb 07 be
       -0.021692662 -0.08722396 0.027287705 -0.13273402
000340 0d dc 2e 3c b0 d0 9b bd dc 2a d3 3c e2 c7 97 bd
       0.010672581 -0.07608163 0.025777273 -0.074111715
000350 bc 3b 90 bd e8 6a 9f bd e5 f1 e7 bd 85 58 8d bd
       -0.070426434 -0.077840626 -0.113254346 -0.069016494
000360 e0 37 81 bd 95 fe a8 bd d4 47 eb 3d 4b 48 dd 3d
       -0.063094854 -0.08251683 0.114883095 0.108048044
000370 00 ae ac 3d 1f bf 9a 3c 52 ee 09 3d 5c 34 ab bc
       0.08431625 0.018889962 0.033674546 -0.02089899
000380 e2 f7 b6 3d 5d c7 bf 3d b6 20 a8 3d 68 07 96 bd
       0.08933999 0.093641974 0.08209364 -0.073256314
000390 0e 29 fb 3d be eb f3 bb 2b 11 b3 3d 29 4b b5 3d
       0.1226369 -0.007443874 0.08743509 0.08852226
0003a0 d9 b7 0c 3e f8 b2 5b bd 6c de 3e bd 4c 44 c4 3d
       0.13742007 -0.053637475 -0.046598837 0.09583339
0003b0 d3 f7 06 3d 8a b2 a8 bd 10 ea 43 3d 4a 3d e9 3b
       0.032951187 -0.082371786 0.04783064 0.007117902
0003c0 45 ac e0 bd b4 9b 55 bd 23 89 c3 bc 1a 55 26 bd
       -0.10970358 -0.052150443 -0.023869103 -0.040608503
0003d0 5c d6 1c 3d af fc eb bc 87 d7 be 3b de 4b 7b bd
       0.038290367 -0.028807012 0.0058240327 -0.06135165
0003e0 f3 90 85 bc 06 6a b6 3b fc e2 8d bd 6b 8c 0a 3d
       -0.016304469 0.005566838 -0.069280595 0.03382532
0003f0 68 e3 ec bd e2 f4 af 3d 8f c5 62 3d 03 5b da 3d
       -0.11566812 0.085916296 0.055364188 0.1066189

lstm.weight_hh_l0 f4 [256, 64]
000000 42 ac 49 3e 26 1c 9b 3d 8f 07 29 3e 32 bf af 3d
       0.19694617 0.07573728 0.1650679 0.085813895
000010 34 db e0 3d ff cc f0 3d 83 41 17 bd 77 a0 11 bd
       0.1097931 0.1175785 -0.03692771 -0.03555342
000020 47 f5 b4 bc 85 2d 2e 3e 22 69 9d 3d 9b 27 b3 3d
       -0.022089614 0.17009552 0.07686068 0.087477885
000030 90 7b bb 3d c0 02 94 bd 55 6d 1e bd 19 dc 03 3e
       0.09154427 -0.07227087 -0.038678486 0.1287693
000040 8c 5b db 3c dc d8 0e be 2f a8 0e bb 39 0c 54 bd
       0.026777051 -0.13949913 -0.0021767726 -0.05176947
000050 c0 11 8b bd 44 e8 13 3c 07 13 ec 3c 37 0a 6f 3c
       -0.06790495 0.009027544 0.028817667 0.014589838
000060 88 5b ad bc 6e db ae bc 30 2b 51 3d 0d de 09 bc
       -0.02116181 -0.021344867 0.051066577 -0.008414757
000070 84 5f 25 3e e7 7b 3c bd 95 1d db 3d 2f 81 d6 bd
       0.16149718 -0.0460166 0.10699002 -0.104738586
000080 08 51 f0 3d 2e 07 5d bd 43 b5 b8 bb ff 73 0e bd
       0.117342055 -0.053961925 -0.0056368425 -0.03477859
000090 77 e1 ad bb fc 9e 35 bc 01 98 22 bd 52 9d 39 bd
       -0.0053064185 -0.011085268 -0.039695743 -0.045316048
0000a0 ff fa 10 ba 38 ab 33 3d 03 2c bf 3d 5d e8 87 3e
       -0.00055305654 0.04386446 0.093345664 0.26544467
0000b0 a2 13 5c 3d 26 c2 ba bd b1 3c 93 bc 69 14 07 be
       0.05372966 -0.09119062 -0.017973276 -0.1319138
0000c0 82 8e 66 be 7c 99 31 3c 61 32 11 3e 62 26 0d be
       -0.225153 0.010839816 0.14179374 -0.13784173
0000d0 18 d3 70 bd 39 cb 83 3c bf f9 02 be 07 59 12 be
       -0.058795065 0.016088115 -0.12790583 -0.14291774
0000e0 a5 a1 1a be 44 6f 67 3d 3d a6 1e 3b 47 dd 8e bc
       -0.15100725 0.056502596 0.0024207972 -0.017439498
0000f0 88 e5 b7 bd 9b e5 04 3e 71 94 2e be de d5 59 bd
       -0.089793265 0.12978213 -0.17048813 -0.053182475
000100 d5 98 ae 3d 50 f1 96 3d 2b ab a8 3d d1 0f ef 3d
       0.08525244 0.073702455 0.08235773 0.116729386
000110 09 e0 9f 3b 84 85 f6 3c 99 f8 99 3d 51 6d fd bd
       0.004879002 0.030092962 0.07518119 -0.12374366
000120 be 9c db 3d e2 7e 04 3e 22 b1 bd 3d ff 40 f7 bd
       0.107232556 0.12939027 0.09262301 -0.12072944
000130 37 4e 34 bd ef 01 95 3c 26 87 8c 3d 05 99 c7 bd
       -0.044019904 0.018189399 0.06861715 -0.09745983
000140 3a 2b 0a be f4 57 0a bd c4 1b e6 bd 63 90 ff bd
       -0.13493052 -0.033775285 -0.112357646 -0.124787115
000150 e9 76 fb bc f8 2e e4 bd 4b ba bc bd b8 57 0a bd
       -0.03069635 -0.11141771 -0.0921522 -0.03377506
000160 4d f6 c9 bd 96 65 f2 3c a2 27 87 3d cd 07 b3 bd
       -0.09861431 0.029589456 0.06599356 -0.08741722
000170 4d 0d b7 bd 35 9f e8 3b 19 51 d9 bd 4f bc dc bd
       -0.08938084 0.007099057 -0.10611171 -0.107781045
000180 08 1f 29 bd df eb 8e 3d 06 af b3 bd bc 69 5c 3c
       -0.04128936 0.069785826 -0.087736174 0.013452943
000190 b9 0f ff bc 84 52 83 bb 1e 7b eb 3b c9 18 a7 bd
       -0.031135427 -0.0040076394 0.0071863076 -0.08159024
0001a0 44 ef ce 3b 6f ee 88 bd 48 06 96 3d f0 8f ea 3d
       0.006315144 -0.066861026 0.07325417 0.11453235
0001b0 64 e4 64 3d 19 8a a6 bd 8c ba 7f 3d 8c c8 a3 3d
       0.055881873 -0.08131809 0.062433764 0.07997236
0001c0 be 4e 47 3d e8 ec 32 bd 16 00 b2 bc 5f 7c b4 bd
       0.04865908 -0.043682963 -0.021728557 -0.088127844
0001d0 e6 21 12 3e b2 d4 c0 bd 8a c7 e3 bd 81 c0 be bd
       0.14270744 -0.094155684 -0.111220434 -0.09314061
0001e0 c7 85 1a bd 66 98 9b 3d 4c c3 a8 bc e3 36 4d 3c
       -0.037725236 0.07597427 -0.020600937 0.012525293
0001f0 bd f6 04 3d 0e 57 90 3d 57 86 0d 3e ea de 85 bd
       0.03246187 0.07047854 0.13820778 -0.06536658
000200 fe ba bb bc a4 60 8b bd 34 93 69 3c e0 1a 90 bb
       -0.022916313 -0.06805542 0.014256287 -0.004397735
000210 5e ab dd bc ed b9 93 bd be 48 fd 3c a4 ae f0 3d
       -0.027059253 -0.07213197 0.030918475 0.1175206
000220 e3 11 af bd f0 f3 c5 bd ff 86 da 3d b2 31 e5 bd
       -0.085483335 -0.09665668 0.1067028 -0.11191119
000230 a4 56 9f 3b c9 53 a8 3d fa ab 3d bd f4 c1 15 3e
       0.0048626233 0.08219106 -0.046306588 0.14624768
000240 0a f8 cd bd 02 e6 4d bd a5 bd 06 3d 2a 3d ba bd
       -0.10057075 -0.05026818 0.032895703 -0.09093697
000250 fd 64 9b 3b 86 31 1d be 0c 9e 2c 3c d0 65 cd bd
       0.0047422634 -0.15350923 0.010535728 -0.10029185
000260 5a 2e ce bc 74 ff 56 3d f9 b9 f9 3d 4d fa 23 bc
       -0.025168587 0.052489713 0.121936746 -0.010008407
000270 78 9d a9 3b cc ba 8f bd af 83 c6 bd c1 df d4 bd
       0.0051762424 -0.070180506 -0.096930854 -0.1039424
000280 c3 ca 9c bd 14 b6 ef bd 86 2a d4 bc 80 8e 04 be
       -0.07655861 -0.117046505 -0.025899183 -0.12944984
000290 2a 1f ea 3b 62 d5 b4 bd d1 6e ac bd b9 07 e1 bd
       0.0071448283 -0.08829762 -0.08419574 -0.10987801
0002a0 3b f1 b0 3d e7 d0 2d 3e 22 f9 2d 3d b2 73 c2 3d
       0.08639761 0.16974221 0.04247392 0.094947234
0002b0 64 e8 a9 3d 73 9e 56 3c e7 4f 25 bd c9 12 9d 3c
       0.08296278 0.013099301 -0.040359404 0.019173997
0002c0 c0 85 0e be fc 16 8b bd 04 a3 17 bd 58 67 04 bd
       -0.13918209 -0.06791493 -0.0370207 -0.03232512
0002d0 c5 26 44 3d 30 68 45 3d f4 54 5b 3b b2 76 3d 3d
       0.047888536 0.048195064 0.0033467384 0.046255775
0002e0 5c 5e b3 bd 66 28 25 be 6f 1a 0c be b5 88 19 be
       -0.08758232 -0.16128692 -0.13681959 -0.14993556
0002f0 04 62 d8 bd a0 37 96 bd fe ea ad 3d db ef 2b bb
       -0.1056557 -0.073348284 0.08492087 -0.0026235494
000300 0b ef 98 3d 3d 75 25 3d f3 d3 d5 3c dd cd 1e 3d
       0.07467469 0.04039501 0.026102042 0.038770545
000310 3a a7 ae 3c 7d 3d be 3c 3f cd c4 bc 69 cd 72 3d
       0.021319974 0.02322268 -0.02402365 0.059277926
000320 a2 b2 a6 bc b0 7b 69 3d 20 1a d3 3d d0 0f cb bd
       -0.02034885 0.057002723 0.10307717 -0.09915125
000330 1e 52 91 3c 68 70 3f bd 95 f2 b6 bc 96 a5 c8 3a
       0.017739352 -0.04673806 -0.022332469 0.0015308138
000340 f3 12 27 bd b8 fb 3f 3d 5a f1 36 3d d6 e1 46 bd
       -0.040789556 0.046870917 0.044663765 -0.048555218
000350 1b e1 ab 3c 9d c5 2f 3c 62 e2 ca bd e0 27 d5 bd
       0.020981362 0.010728267 -0.0990646 -0.10407996
000360 6a 8d d5 bd 4a 67 f7 3d 14 61 71 bd ea ff 88 bd
       -0.10427363 0.12080248 -0.05893047 -0.06689437
000370 7e bc e5 3d 71 3d 77 bd 1e c5 5c bc 98 7e 50 3b
       0.11217593 -0.06036133 -0.013474731 0.0031813737
000380 42 9a 91 3d e0 29 7d 3d 07 77 f4 bd 2b f9 93 bd
       0.071095005 0.061807513 -0.11936765 -0.072252594
000390 d0 50 c0 bd 5d 7b 91 3d 44 7d bf bd 2c 1c 12 bd
       -0.09390414 0.07103608 -0.093500644 -0.035671398
0003a0 9c dd 0c be 89 87 4e 3d a8 16 54 3c de d5 fd 3d
       -0.13756412 0.050422225 0.012944855 0.123943076
0003b0 36 9e 38 bd c0 22 0a bc a5 57 b9 3c c8 f8 92 bd
       -0.045072757 -0.008431137 0.0226248 -0.071763575
0003c0 35 c3 82 bd 35 27 a6 3d c3 c2 95 bd 89 cd d3 bd
       -0.06384889 0.08112947 -0.073125385 -0.10341937
0003d0 17 75 10 bd 3e 6a 14 3d 74 03 8f 3d 83 10 f9 bd
       -0.035267916 0.036234133 0.069830805 -0.121613525
0003e0 f5 4b d2 bd e0 ea 81 3d 3e 27 e1 bd b0 75 42 bc
       -0.10268394 0.06343627 -0.10993813 -0.011868879
0003f0 0e d0 bf bd 0c 65 05 bc 95 0d 10 3d 57 3d fb bd
       -0.09365855 -0.008141767 0.035169203 -0.12267559

lstm.bias_ih_l0 f4 [256]
000000 94 40 d7 bd a2 6c d8 3c d4 5b d8 3d fc ce f8 bb
       -0.10510364 0.026418988 0.1056439 -0.007593034
000010 39 31 2f 3c c0 b5 13 3d 50 a8 c1 3b 46 16 67 3d
       0.010692888 0.036062002 0.005909957 0.056417726
000020 aa 80 a7 bd 4d a8 fd bc ba a7 a9 3c de 67 ec 3d
       -0.081788376 -0.030964041 0.020709861 0.115432486
000030 11 1b f1 bc 72 d4 d0 3d cb 62 74 3d e1 1d 66 bd
       -0.029431852 0.10196771 0.05966453 -0.05618084
000040 e7 0f 2c bd 2e 58 63 3d 9d ef a4 3c f3 7e 32 3d
       -0.042007353 0.055504017 0.020133788 0.0435781
000050 36 f7 aa 3d 54 d4 0c bd f0 8c 51 bc 53 45 a2 bc
       0.08347933 -0.03438218 -0.01278995 -0.019808447
000060 c7 0b 1d 3d 05 4e 4f bc ea 27 04 3d 1e 80 ff 3d
       0.03834131 -0.012652879 0.032264628 0.12475608
000070 42 e8 d5 3c 06 7f 19 bd 30 37 67 3d c0 29 cb 3d
       0.026111726 -0.037474655 0.056449115 0.099200726
000080 e8 64 e9 3d a0 b8 2f 3e 32 48 47 bc a0 63 ed 3c
       0.113961995 0.17160273 -0.012163209 0.028978169
000090 06 63 b2 3c 1d 45 c7 bd 23 4d 3c 3b ec c0 8f 3d
       0.021775734 -0.09729979 0.00287325 0.07019219
0000a0 62 09 90 bd 14 7e e8 bc 4d d0 6f bd 69 90 d1 bd
       -0.0703304 -0.028380431 -0.05854826 -0.10232622
0000b0 cf c8 0b 3d 78 77 5e 3c 9b 77 25 bd 11 a2 ad 3d
       0.034127053 0.013578288 -0.040397268 0.08478177
0000c0 61 ba 1f 3d 34 a7 f0 3c e7 25 4c 3d cd 06 c7 bd
       0.038996104 0.029376604 0.049840834 -0.09718094
0000d0 a8 44 9d 3d cc 40 da bd fe 07 20 3e 8a 28 bc 3c
       0.07679111 -0.1065689 0.15628049 0.02296855
0000e0 ef 0f 06 3e 9d e2 7f bd 7b 6c 22 3c 2c 49 8b 3d
       0.13092016 -0.062471975 0.009913559 0.06801066
0000f0 2e e1 81 3d 6c f2 66 bd 71 9d 14 3d 3f 88 b8 3d
       0.06341778 -0.056383535 0.03628296 0.09010362
000100 e2 42 b0 3d 71 ef 53 bd 1d 34 7f bd 73 65 a8 3d
       0.08606507 -0.05174202 -0.06230556 0.08222475
000110 a1 07 94 bc e1 7c ed 3b 60 d9 9e bb ef ee a6 3d
       -0.018070044 0.0072475527 -0.0048476905 0.08151042
000120 fa a2 98 3d d3 e9 76 bd 35 4a a7 bc 2e e1 8a bd
       0.0745296 -0.060281586 -0.020421127 -0.06781231
000130 77 aa 76 3d f3 cc 0c bd 40 63 92 bc 0b 6b cb bc
       0.06022116 -0.034375142 -0.017869592 -0.024831316
000140 02 90 88 bd 78 ad 6d 3d 56 b5 e0 3c 91 1e 41 bd
       -0.06668092 0.05802676 0.027430218 -0.04714829
000150 3d a7 e4 3d e3 ce fd 3d 1d a8 be bd b2 41 3f bd
       0.11164711 0.12392976 -0.09309409 -0.04669351
000160 8d 90 98 3c e5 98 c9 3d 28 2f 71 3d 51 0f 97 3d
       0.018623615 0.098436154 0.058882862 0.07375968
000170 09 1b b0 3c eb f5 d6 3d b5 65 b0 bd ea 4a 8e 3d
       0.021497266 0.10496124 -0.08613149 0.069478825
000180 ea 56 a1 3d 7b 1e b3 bd f3 d7 06 3d 67 d1 a6 3d
       0.07877906 -0.08746048 0.03292079 0.08145409
000190 72 36 8b 3d 71 29 a0 bd 8e 38 a3 3d 27 bb cb 3c
       0.06797494 -0.07820404 0.07969771 0.024869515
0001a0 e0 38 85 bd 79 8d c1 bd 68 eb 4c 3d d1 02 b1 3c
       -0.06504989 -0.09450812 0.05002919 0.021607788
0001b0 91 b2 94 3d 24 b2 a6 bd c8 1d 84 3b 25 53 7f 3d
       0.07260621 -0.081394464 0.0040318705 0.062335152
0001c0 47 d5 b6 bd f7 5a e8 3c cf ea 64 3c 6a 92 47 3d
       -0.08927398 0.028363688 0.013971998 0.048723616
0001d0 42 50 d0 3d f2 2f b9 bb a4 ed c8 3d 6c e0 b4 3d
       0.10171558 -0.0056514675 0.09810951 0.088318676
0001e0 03 ce 02 3e be 03 83 3d 90 cd 41 bd a0 2f 1b bd
       0.127739 0.06397198 -0.04731518 -0.037887216
0001f0 7d ae 3d 3c cc 74 a8 bd 47 5f 0b 3e 8a 2d 40 3d
       0.011577246 -0.08225402 0.13610564 0.04691843
000200 86 2b 2d 3c b1 a0 b5 bd f9 0f 79 bd f9 66 64 3c
       0.010569459 -0.0886854 -0.06080625 0.013940566
000210 df 9f b3 bd 28 b5 01 3e 55 12 87 bd 48 61 58 bd
       -0.08770727 0.12666762 -0.065952934 -0.05282715
000220 1d 26 30 3c 5b 83 be bd f7 81 54 bd 1c 54 cd bc
       0.010751274 -0.09302398 -0.051881757 -0.02506452
000230 b8 3a d1 3d 87 e0 b4 3d ab ce 23 bd 0a 76 c7 bc
       0.10216278 0.08831888 -0.039992016 -0.024348278
000240 d7 c8 80 bd a5 3d 09 bd 1e 80 e5 3c 8e f0 9e bd
       -0.06288307 -0.033506054 0.028015193 -0.07760726
000250 68 9c ee 3b 65 12 01 3d 59 a9 5c 3d d5 c3 94 bd
       0.0072818287 0.031511683 0.05387244 -0.072639145
000260 3a c6 77 bd 79 da 31 3d 98 44 da bd 04 43 ba 3b
       -0.060491778 0.043421242 -0.106576145 0.0056842584
000270 ae 9c 02 bd d5 f5 8b bd 03 48 df 3d 55 8a 75 bd
       -0.031887703 -0.06833998 0.10902407 -0.059946377
000280 03 df fe 3d 1a 24 f3 3d 46 89 ce 3b 35 e0 71 3c
       0.1244488 0.1187212 0.0063029854 0.014762928
000290 b8 71 b7 bd e4 04 a5 bd c0 ac 05 be 4d 7e 57 3c
       -0.08957237 -0.080575734 -0.1305418 0.013152671
0002a0 fd ae 29 bd 05 43 bd bd a2 61 b0 3d 65 47 80 3d
       -0.041426647 -0.092412986 0.08612372 0.062636174
0002b0 3b fb 8a bd a0 b0 ef 3c c0 dd 0b 3e a9 01 91 bd
       -0.067862 0.029259026 0.1365881 -0.07080395
0002c0 c4 02 fd bc a8 bd 50 3d 22 5c 2f 3d e8 1e 19 3d
       -0.030885108 0.05096212 0.042812474 0.03738299
0002d0 80 7f ab bd 0c 7a f7 3d 3d f0 b0 bd 8c 88 91 bd
       -0.08373928 0.120838255 -0.08639572 -0.071061224
0002e0 2f 61 dc 3d c8 2f 80 bd 6f f1 e3 3d 4c fe bc bc
       0.10760724 -0.062591136 0.11130034 -0.023070477
0002f0 a4 74 9a bd 48 91 f6 bb f5 44 d6 bd ce d4 28 3d
       -0.07541779 -0.007524643 -0.10462371 0.04121857
000300 e8 68 66 3d ab b5 01 3e fd 6c da 3d 9d 30 52 3d
       0.05625239 0.12666957 0.10665319 0.051315892
000310 16 b2 9f 3d b3 c0 fc 3d a8 2e 0c 3e da 9c 2f bd
       0.07797639 0.12341442 0.13689673 -0.042874195
000320 3e 14 b7 3d 33 43 0a 3b 05 0e 8b 3d cb 16 24 3e
       0.08939408 0.0021097183 0.067897834 0.1602432
000330 16 5a fd 3d 0b 46 38 bd ed 8a c3 bd b6 81 95 3d
       0.12370698 -0.044988673 -0.09547982 0.07300131
000340 bb 08 db 38 60 96 ca 3b 6c c1 08 bc 18 c1 0a 3d
       0.0001044436 0.006182477 -0.008346897 0.033875555
000350 36 58 76 bd d4 ac ad 3d a5 73 4b bc 59 7f f5 3d
       -0.06014272 0.0848023 -0.0124177085 0.1198718
000360 b1 38 2c bd d7 6c 3f 3d d9 cf c0 bd a7 33 07 bc
       -0.042046253 0.046734657 -0.09414644 -0.008252061
000370 6a 21 86 3c 56 8d 3e 3d 15 cc bf 3d f6 81 ab 3b
       0.016373355 0.046521507 0.093650974 0.0052339984
000380 d6 39 d2 38 d6 08 e0 bc ac 11 ad 3d 2f 7b 51 3c
       0.00010024353 -0.027347963 0.08450636 0.012785717
000390 3b ac 0b 3c 13 7d 22 3d 3f a1 08 bd 2e a2 8c 3d
       0.00852495 0.03967006 -0.0333569 0.06866871
0003a0 6c 0c 10 3e 70 94 30 3e 6f 67 b0 3d dc 14 6a bc
       0.14067239 0.17244124 0.086134784 -0.0142872
0003b0 10 fc 89 bd f7 62 0f 3e 1f 3e 1c bd a8 31 ad 3d
       -0.0673753 0.14002596 -0.03814518 0.08456737
0003c0 a0 46 2a bd 8a 7c 80 3d 9b 20 c0 3c 34 b7 e4 3d
       -0.04157126 0.06273754 0.023453047 0.11167756
0003d0 15 56 12 3d 48 45 c1 3d 28 80 e8 3d 9a 20 ad bd
       0.035726625 0.094370425 0.11352569 -0.08453484
0003e0 05 a8 27 bc 01 5f f0 bc a1 18 34 3d ff 8e 16 3e
       -0.01023293 -0.029342176 0.0439688 0.14702986
0003f0 05 36 21 3e 3b 5f b9 bc b5 85 ff 3c f7 56 0e 3e
       0.15743263 -0.022628417 0.031191686 0.13900362

lstm.bias_hh_l0 f4 [256]
000000 df 8c 1d bc f5 24 88 3d 7a c0 bd bc f4 b2 83 bc
       -0.009616106 0.06647674 -0.023163069 -0.016076542
000010 ec fb d8 bd 49 f1 69 3d 89 46 1a 3e 1b 56 81 bd
       -0.10594925 0.057114873 0.1506597 -0.063152514
000020 c2 ef eb bd b5 ca 5f 3d 21 2c ac bc a0 26 e6 3d
       -0.115203395 0.054636676 -0.021017136 0.11237836
000030 e9 91 bf bd ac f8 ec bc 98 c8 2c 3d 18 6c aa bd
       -0.09354002 -0.02892717 0.04218349 -0.083213985
000040 3f 7f aa 3c 50 f4 a8 bd 14 a8 8c bd aa f2 21 3d
       0.020812629 -0.08249724 -0.06867996 0.039538063
000050 7d 0e c3 bd e8 ea 9c 3d 53 07 d0 bd 09 2e 76 3d
       -0.09524248 0.07661992 -0.10157647 0.060102496
000060 19 84 2b bd 82 b7 9b bd f5 9b c2 bb 06 2c af 3b
       -0.041874025 -0.07603361 -0.0059390017 0.005345824
000070 39 b7 a2 3d 4a 83 26 3e 52 0a ab bd 2a 2d 9f 3d
       0.07945103 0.1626102 -0.08351578 0.07772286
000080 b0 07 01 bd ba 27 f6 3d a5 e8 83 bd 62 ed c5 3d
       -0.031501472 0.12019296 -0.06440858 0.09664418
000090 a1 5f 29 bd 44 f1 17 3d 64 02 3a 3b a3 e3 91 bd
       -0.041350964 0.037095323 0.0028382773 -0.071234964
0000a0 f7 77 2d bd 18 c1 8f bd fc ca 45 bd d9 e9 c5 3d
       -0.042350736 -0.070192516 -0.048289284 0.096637435
0000b0 40 48 9e bc 74 2c bc bd e7 8a ce 3d eb 25 f2 bc
       -0.01932156 -0.09188166 0.10085087 -0.029559096
0000c0 43 cf 44 bd f3 2c 8e 3c 27 5d cb bc aa c7 c8 3d
       -0.048049223 0.017355418 -0.024824692 0.09803708
0000d0 45 57 0d bd 56 3b ab 3d d0 22 c4 3d e4 4c fd 3d
       -0.034507055 0.08360927 0.095769525 0.12368181
0000e0 0d c1 4c bd f7 09 ea 3d d9 2c 02 3d 44 e9 36 bc
       -0.049988795 0.11427682 0.03178105 -0.011164013
0000f0 44 04 4b bd 8c c2 9e 3d 30 74 a6 3d 30 e1 da 3c
       -0.049564615 0.077519506 0.0812763 0.026718706
000100 0a 5e 81 3d f9 3b ad 3d 89 91 df 3d 7d 52 06 bd
       0.06316765 0.084587045 0.109164305 -0.03279351
000110 0b 45 67 bd 19 2d 05 3e bd ab b9 3d 77 d6 d7 3d
       -0.05646233 0.13005485 0.090659596 0.10538953
000120 78 c7 f8 bc a9 28 ac 3d 2b 69 e7 bd 7f 58 9e bc
       -0.030368552 0.08406193 -0.11299356 -0.019329308
000130 26 b7 9c 3c bb 55 ca 3d 79 93 80 bb 17 8f ac 3d
       0.0191303 0.09879633 -0.00392383 0.0842573
000140 6a 39 c1 bd d4 a8 94 3d d4 8f 27 bd 8e dc 9f 3d
       -0.09434779 0.07258764 -0.04090865 0.07805739
000150 e3 51 5d 3c ec 4f 15 bd 66 20 c4 bd f5 b4 79 bd
       0.013508293 -0.036453173 -0.09576492 -0.06096359
000160 e5 90 d6 3c 66 f4 55 3d ea b3 c5 3d 0b 57 b8 3d
       0.026192138 0.05223503 0.096534565 0.09000977
000170 e7 d1 5d 3d 09 ca 85 3d 49 4f 5c bd 24 55 d0 3d
       0.054155257 0.06532676 -0.05378655 0.10172489
000180 06 05 40 3e bd 63 16 3c 86 39 e6 3d 35 ee 04 3e
       0.18751916 0.009179053 0.112414405 0.12981494
000190 7b 3d db 3d f5 f7 14 3e a5 10 02 3d ab 12 d6 3d
       0.10705086 0.14547713 0.031754155 0.104527794
0001a0 99 7d ab 3d 89 f3 7d bc 49 36 8a bd b2 e1 06 be
       0.08373565 -0.015499958 -0.06748635 -0.13172033
0001b0 5b 1e dc bc be 9e bf bd 79 67 85 bd 5e 2c a5 3d
       -0.026869943 -0.093564495 -0.065138765 0.08065103
0001c0 dc 3d 84 bd 5a f0 53 3d a7 0b 4f 3c 01 af 8e 3d
       -0.06457111 0.05174289 0.0126370555 0.06966973
0001d0 45 9f 38 bc 63 f6 21 3d 88 64 05 3e df 79 ee ba
       -0.011268442 0.039541613 0.13026631 -0.0018194279
0001e0 8d f5 74 bd 24 e6 39 bc f5 33 0f 3e 8f 54 d4 3d
       -0.059804488 -0.011346374 0.13984664 0.10367691
0001f0 a7 b7 96 bd f4 8b 06 bd 4a b2 bc bd d6 68 9d bd
       -0.07359248 -0.032848313 -0.092136934 -0.076860115
000200 3a 81 6c bd 52 19 4d 3d 84 d5 cd 3a c7 fd 15 be
       -0.057740428 0.050072975 0.0015703891 -0.1464759
000210 d8 ce 6a 3d 99 9b 54 3d b1 8b 03 bd 60 1e f0 3d
       0.057326168 0.051906202 -0.032115642 0.117245436
000220 b3 66 8b bd 67 8d d7 bc 1e 52 71 bd 0f 7c a7 bd
       -0.06806698 -0.026312543 -0.058916204 -0.08177959
000230 d3 17 a6 3b 27 84 23 3d 7d da ca 3d f4 5a 32 bb
       0.005068758 0.039920952 0.099049546 -0.0027214857
000240 67 3a e9 bd 16 be 87 bd 38 3e dd 3d 2b e3 db bd
       -0.113880925 -0.06628053 0.10802883 -0.10736688
000250 85 c0 03 3e ce c8 a3 3d d2 05 9c 3d 99 1e b2 3d
       0.12866409 0.07997285 0.07618298 0.08697242
000260 38 ca c7 ba b7 5a d8 3c b2 1b 91 3d c6 05 e2 3d
       -0.0015242761 0.026410444 0.070853606 0.110362574
000270 c7 3b a6 3d 8e 20 d7 bd 65 dc b5 3d 82 e6 b8 bd
       0.081168704 -0.10504256 0.088799275 -0.09028341
000280 4c 32 2f 3d 53 77 40 bd 7f 3d 87 bd a7 07 41 bd
       0.042772576 -0.046988796 -0.06603526 -0.04712644
000290 9a 5b e2 3d 72 16 6b 3d e4 d8 63 bd b1 73 8a bc
       0.11052628 0.057394452 -0.055626765 -0.01690087
0002a0 aa 79 24 3d 8c f2 e6 3c 29 fe a5 bd 30 cb 1f 3d
       0.04015509 0.028191827 -0.08105118 0.039012134
0002b0 46 b4 92 ba 00 2b e8 3d f4 58 1f bd c1 35 66 bc
       -0.0011192642 0.113363266 -0.03890319 -0.014050902
0002c0 68 76 97 bd 9e e2 44 3d bf 28 8b bc 35 68 ff 3d
       -0.07395631 0.04806768 -0.016987203 0.12471048
0002d0 a9 85 fb 3d cd 66 93 3c d9 2f d6 bd bb 00 2a bd
       0.12281353 0.017993355 -0.10458345 -0.041504603
0002e0 b3 24 84 bd d0 aa 07 bc 56 87 80 3d 0c 93 9b 3d
       -0.06452312 -0.008280471 0.06275813 0.07596406
0002f0 aa 1c be 3d e4 57 97 bd ab 91 e7 bd 81 73 ba bd
       0.09282811 -0.07389811 -0.11307081 -0.09104062
000300 97 25 87 bc 57 68 88 bc 7e a5 08 3e 3a 43 66 bc
       -0.016497416 -0.016651316 0.1334438 -0.014054114
000310 4f bd 1d 3e 68 cd 33 3c ef 14 c7 3d 2b 62 fb 3d
       0.15404247 0.010974266 0.0972079 0.122745834
000320 65 b4 0e 3d 66 24 a7 3d 3e 15 c2 3d b9 d4 00 3e
       0.034840006 0.08161239 0.09476708 0.12581147
000330 65 c4 4a bc 18 ee 4a 3d b4 62 dd bd 74 41 2f 3d
       -0.012375926 0.04954347 -0.10809842 0.04278703
000340 f8 e5 22 bd 1d 03 27 3e fd 0f 84 3d 0c f8 16 bd
       -0.039770097 0.16309781 0.06448362 -0.03685765
000350 5a 69 2f bd 79 85 cb 3d 90 0b b3 3d 6e f2 c6 bc
       -0.04282508 0.09937567 0.0874244 -0.024285521
000360 be 31 3e bd 44 db fc 3d c0 67 04 3e c5 b8 81 3c
       -0.046434157 0.12346509 0.12930202 0.015835175
000370 0b c4 f1 3c 43 cd fe 3b 80 3d c9 3d 2b e0 ab 3c
       0.029512426 0.007775934 0.09826183 0.020980915
000380 d5 e1 86 bc 9d b3 e1 bd 3e 2a c4 3d 63 d5 9d 3c
       -0.016465107 -0.11020587 0.095783696 0.01926679
000390 9c b3 04 3e e9 54 9a 3d b1 4c 9a bb cd 86 f8 3c
       0.1295914 0.075357266 -0.0047088494 0.030337716
0003a0 4e 7f 60 3d 3f 9e 09 3e cb 51 ad 3c 75 c6 02 3e
       0.054808907 0.13439272 0.021157166 0.12771018
0003b0 60 4e 05 3e f8 f5 bd bd e5 3d 28 3d cc eb e7 3d
       0.13018179 -0.092754304 0.041074652 0.113242716
0003c0 e0 c3 16 bd 68 f3 fc bd ea 11 e6 3d 58 62 13 3d
       -0.036807895 -0.123511136 0.112338856 0.03598246
0003d0 0e 47 cb bc aa 75 c2 bc a1 23 2b 3d eb ed 24 3e
       -0.024814155 -0.023737747 0.041782025 0.16106384
0003e0 c5 fb ed 3c e2 58 50 3d 9f 66 98 3d bc a7 1b 3e
       0.029050717 0.050866015 0.074414484 0.15200704
0003f0 91 da 91 3d 31 b9 7b bd 47 ce 85 3c 19 dd 54 bd
       0.07121766 -0.06145591 0.016333712 -0.051968668

lin1.weight f4 [32, 64]
000000 8e 14 01 3d dd cc b6 3d 46 c2 0a 3f 9c 56 77 3e
       0.031513743 0.08925793 0.5420269 0.24154133
000010 c8 d8 bf bd 3f 62 4f 3e df 9e 99 be d6 d4 1b 3e
       -0.093675196 0.20252322 -0.30004022 0.15217909
000020 e7 96 6d 3d d9 d4 11 bb d1 1e 62 3d b3 c3 a1 3d
       0.05800524 -0.0022252111 0.05520517 0.07898655
000030 12 5d a7 3e fa 97 75 3e 35 67 31 3e fb 84 12 3f
       0.32688195 0.23983756 0.17324527 0.5723416
000040 11 6c db bb 5d dc 38 be c9 43 6b be 51 3b 46 be
       -0.006696232 -0.18052812 -0.22975077 -0.19358565
000050 f6 85 c4 3e df ea fb 3c e0 df 0c 3f 53 50 6a 3e
       0.38383454 0.030751644 0.55029106 0.22882204
000060 5a 5f 60 3e 52 5c 0f 3e b8 76 77 3e ae e7 ca be
       0.21911374 0.14000061 0.24166381 -0.39629883
000070 6b 4c 1d 3e 5a c2 60 bd c9 30 a4 3e 92 8c 53 be
       0.15361182 -0.054872848 0.3206847 -0.20659092
000080 2e f9 66 be a4 f5 72 3e 00 70 a1 be 3d 4b 60 3c
       -0.22555992 0.23726517 -0.31530762 0.013689813
000090 99 e4 c6 be 19 71 c4 bd e9 a9 86 3e 68 57 92 bd
       -0.3884628 -0.09591884 0.26301506 -0.07145578
0000a0 0f 64 af 3e ba b9 73 3f 40 43 38 be 1a 3b 8e be
       0.34256026 0.9520527 -0.17994404 -0.27779466
0000b0 97 64 c6 bc 7a ea 12 3d 34 e1 94 3d 51 b6 34 3b
       -0.024217887 0.035868146 0.072695166 0.002757449
0000c0 bd 23 b4 be 47 ab 66 3e 9a 29 28 be 73 1f 78 3e
       -0.35183516 0.22526275 -0.1642212 0.24230747
0000d0 ed 9a b5 3e 63 b0 1c 3e 31 c0 01 3f 9f da 35 3e
       0.35469761 0.15301661 0.50683886 0.17759179
0000e0 97 27 f6 3d c3 dd 29 3e 0f 36 02 bf f8 5b 94 3c
       0.1201927 0.16588502 -0.50863737 0.01811026
0000f0 ba 2b 78 3e 48 cb 58 3f 51 d0 bb 3d e3 d0 fb 3e
       0.2423543 0.8468518 0.091705926 0.49182805
000100 43 e9 2d be 13 0f 26 bd 2c df 1a 3e d5 39 eb 3e
       -0.16983514 -0.04054172 0.15124196 0.4594256
000110 2c cd 7c be c6 da 91 3e 3e f0 eb be 3a ee 00 3e
       -0.24687642 0.28487223 -0.46081728 0.12590876
000120 e8 0d da 3d d7 ce b8 bd d2 17 0f be c0 cf 38 3e
       0.10647184 -0.090238266 -0.1397393 0.18048
000130 e1 b0 67 3d 30 fe 32 3c 2e 64 72 3e a1 0f 44 3b
       0.05656517 0.010924861 0.23671028 0.0029916542
000140 8d 20 b4 bc e0 08 15 3e ba ce 70 3d a7 a9 b0 bd
       -0.021988178 0.14554167 0.0587909 -0.086261086
000150 6f 85 8b 3e 10 fb d1 3c 54 3a e7 3d 33 9b 8f 3d
       0.2725024 0.025632411 0.11290422 0.07012024
000160 ac 4f ec bc a6 f9 95 3e 12 e4 a9 3d 9c e5 55 bd
       -0.028846584 0.2929203 0.08295454 -0.052220926
000170 01 db 8c be 8b c8 0c 3e 28 05 ab 3d fd 52 94 3e
       -0.27510837 0.13748376 0.08350593 0.28969565
000180 e1 0d 24 3e 25 f5 a5 3e c3 4d 50 be 11 a6 59 bd
       0.1602092 0.32413593 -0.20342164 -0.05313689
000190 af 70 3c 3d 7f 4c f8 bd 61 2b 27 3d 23 e5 ec bd
       0.0460059 -0.121239655 0.040812854 -0.11567142
0001a0 44 c5 a3 3e eb 5e 68 3f f7 c3 04 be 15 43 50 3d
       0.3198644 0.90769833 -0.1296538 0.050845224
0001b0 7e 0a d9 bd 6e 6c 71 be 48 60 2a 3e c5 7b 5a 3e
       -0.10597704 -0.23576519 0.16638291 0.21336277
0001c0 0b f8 f2 3c be eb b8 3e 69 e7 93 bc 36 da 9a 3d
       0.029659292 0.36117357 -0.01805468 0.07561152
0001d0 dd 42 1a 3e 04 f5 de 3e 0c 13 bd be b5 39 b7 bd
       0.15064569 0.43546307 -0.36928594 -0.089465536
0001e0 43 15 5e 3e 82 34 0b 3e 56 de 55 bd a4 9f 9f 3d
       0.21687798 0.13594249 -0.05221399 0.07794121
0001f0 be 72 6b 3d af 08 45 3f 06 56 83 be 93 b6 ff 3d
       0.057482474 0.76966375 -0.25651568 0.12485995
000200 60 3e 9c be 41 8f 1a bd 4e 36 02 be cb 29 bf 3e
       -0.30516338 -0.037734274 -0.12716028 0.37336573
000210 03 73 89 3c 44 54 1d 3f 23 7f 30 3d 36 db c8 be
       0.016778475 0.61456704 0.043089997 -0.39229745
000220 ea 78 00 be 4c 84 2f bd b3 c7 23 3e ea 2a 9f be
       -0.12546125 -0.042850778 0.15994148 -0.31087428
000230 9f 43 d7 3c d9 da e7 bd 8d d3 00 3f 2b 6e d2 3d
       0.026277361 -0.11321039 0.503228 0.10274919
000240 82 57 8e bd 3f 90 0b 3e da 1a ed 3e 9f 10 06 bf
       -0.069502845 0.13629244 0.4630955 -0.5236911
000250 c3 9a 38 3e 26 da 62 3e f8 be cd 3d e4 0d f5 3c
       0.18027787 0.2215353 0.1004619 0.02991385
000260 8a e6 53 3e ae 04 2e bd fd e3 5d 3d 16 4e 7b 3e
       0.20693412 -0.04248493 0.054172505 0.24541506
000270 a6 04 47 3e 96 4f da 3e eb 75 ee 3d ff 30 ba 3e
       0.19435367 0.42638844 0.11643585 0.36365506
000280 d6 6e 91 3e f2 11 4c 3d ef 48 0e 3d e1 38 ce 3c
       0.28404874 0.0498218 0.034737524 0.025173606
000290 e5 87 9b be 0d 07 65 3e 06 fb 66 bb cc de 73 3f
       -0.30377117 0.22365971 -0.0035244836 0.95261836
0002a0 91 85 fc 3e 3a 2a 6f be 16 8e a6 bd 61 08 82 3e
       0.49320653 -0.23355952 -0.081325695 0.25397018
0002b0 ff e2 41 be 80 ac 55 3e 03 e9 28 3f 98 bb b0 3d
       -0.18934248 0.20866585 0.6598055 0.08629531
0002c0 7a ad 86 3d 3c 62 a5 3e c3 5f b2 bd 29 10 75 be
       0.06576057 0.3230151 -0.08709671 -0.23931946
0002d0 45 2d ce 3e ca 38 e2 3d 8f c3 04 3f 0c 83 d5 bd
       0.40268913 0.11045988 0.518609 -0.10425386
0002e0 a9 bf 05 3f 7c f6 9f 3e 5d 38 6e 3b 95 d2 e2 3e
       0.52245575 0.3124274 0.0036349513 0.44301286
0002f0 a6 7e 97 bc ed 03 f2 be 1b ee f0 bb 2b 7a 30 3c
       -0.018493008 -0.4726862 -0.007352603 0.010771315
000300 a6 00 4f 3e 8e d2 70 3e db 05 0c be bc c5 e7 3d
       0.20215091 0.2351782 -0.13674109 0.11317012
000310 18 d8 b8 bd fc f4 96 bd 88 29 c5 3d ac d3 df 3e
       -0.090255916 -0.07370946 0.09627062 0.4371618
000320 95 c4 45 3f 9a 95 d5 3e f5 3f 3e 3e 25 0c f6 3e
       0.77253085 0.417157 0.18579085 0.4805614
000330 d6 4b 28 3c b1 7e 8b be 00 4a 01 3d 26 24 4d 3d
       0.010271987 -0.27245095 0.031564713 0.050083302
000340 5a 3d 18 3e 1b f2 1b 3d 1e c3 cc bc 2a e7 ef 3e
       0.14867154 0.038072687 -0.024995383 0.46856052
000350 f8 a9 25 3d 2b 6a 61 3e 00 d9 c0 bc 59 05 d2 3e
       0.040445298 0.22013156 -0.023540974 0.41019705
000360 86 01 24 3e 9e c5 39 3e 4a d5 68 3e 77 bd b4 3e
       0.16016206 0.18141791 0.22737613 0.353008
000370 b1 a5 20 be c1 ec 03 be 79 06 01 3e e1 a6 a0 3e
       -0.15688206 -0.12883283 0.12600125 0.31377319
000380 7b 17 b7 3e b8 d0 99 3e a1 93 b7 3e 75 39 c9 bc
       0.35760102 0.30042052 0.3585482 -0.02456353
000390 f6 a8 02 3f ec 3e 83 bd 16 02 8b 3e 2f 14 5a be
       0.51039064 -0.06408486 0.2715003 -0.21296762
0003a0 84 9b 81 be 03 c2 17 bf c0 cd 54 3f c1 d2 6d 3e
       -0.25313962 -0.59280413 0.8312645 0.23224927
0003b0 d5 54 11 3e 4f b0 a4 bc 9f 58 54 be 6c e2 a7 3e
       0.14192517 -0.020103602 -0.20736931 0.32789934
0003c0 5a 07 03 3f 0f f7 97 3e 56 45 c8 3e 86 bf 12 3f
       0.5118309 0.29680678 0.391154 0.5732349
0003d0 85 12 cd bd ff 9d 12 3d 22 a8 ce be 61 36 3f 3f
       -0.10013298 0.035795208 -0.4036265 0.7469235
0003e0 a3 92 1f bd 5d 9f 4b bd 10 b9 cc 3e 92 99 07 be
       -0.038958203 -0.049712528 0.3998494 -0.13242176
0003f0 8f c5 fd 3e 86 66 df be 6d 5b 9b be 39 d2 ff 3d
       0.49564788 -0.43632907 -0.3034319 0.12491269
